data/maml.onnx (onnx, 453953 bytes, 26 tensors)

vars.0 f4 [64, 1, 3, 3]
000000 cd 83 8f bf 2c f4 5f 3f d0 aa 31 3e b3 9f 58 3f
       -1.1212097 0.8748195 0.17350316 0.8461868
000010 93 08 92 bc b8 22 85 bf e6 b7 8b be 86 19 1c bf
       -0.017826354 -1.040122 -0.2728874 -0.60976446
000020 ae a3 0e 3f 56 0d c5 be 23 95 86 3f 73 85 12 bf
       0.55718505 -0.38486737 1.0514263 -0.5723488
000030 d0 76 6e bf 2a 08 7a 3f 35 60 3f 3e ff 88 9f be
       -0.93150043 0.9766871 0.18689044 -0.31159207
000040 0e ad db 3e 75 a1 1d be a9 b3 ba bf 3b c1 ee 3e
       0.42905468 -0.15393622 -1.4586078 0.46631798
000050 b6 bc 8a 3f 05 f8 96 3f 0c 4a ca 3e 4d 32 d2 3d
       1.083884 1.179444 0.39509618 0.102635
000060 01 62 c1 3e 60 dc b2 3e 1a d6 f2 bd ac 9b 70 3f
       0.37770084 0.34933758 -0.11857243 0.93987536
000070 93 e4 3b 3f fa c1 19 bf 7c 6f a1 bf 32 50 01 3f
       0.7339565 -0.6006161 -1.2612147 0.50512993
000080 b6 d8 bb 3f 13 6a b8 3e 8a 76 37 bf 83 a4 c5 be
       1.467551 0.36018428 -0.7166525 -0.38602075
000090 89 0a e9 bc 08 a9 a0 be c5 62 3c bf f5 e8 83 bf
       -0.028447406 -0.3137896 -0.7358821 -1.0305468
0000a0 33 c4 ea be cf b0 05 bd ab 30 b3 be fc b1 14 bf
       -0.45852813 -0.03263932 -0.34998068 -0.5808408
0000b0 de f7 bb 3e 4f 11 99 3e 4f c8 84 3f a9 cf 9a bf
       0.36712545 0.29896018 1.0373629 -1.2094623
0000c0 7b b8 51 bf 0c 4d 2e 3f b4 e8 2b be 18 c6 14 3f
       -0.8192212 0.68086314 -0.16787988 0.5811477
0000d0 2f f1 9f bd ad d1 bd 3f 4d 16 df be 08 ec 90 bf
       -0.07809674 1.4829613 -0.43571702 -1.1322031
0000e0 ee 6d 5c 3e f9 62 a0 be 70 61 2e be 60 ce 17 be
       0.2152631 -0.3132551 -0.17029357 -0.1482482
0000f0 81 dc 46 bf d6 c3 7b be 99 26 6e bf 93 c0 6d 3e
       -0.7768021 -0.24586424 -0.93027645 0.23217992
000100 c8 6b 0a bf 53 a0 99 3d 3b e3 2b be e5 54 f7 be
       -0.5407071 0.075012825 -0.167859 -0.48306957
000110 bd 27 85 bf 34 29 99 bf c7 a7 0b 3f ed 7c 99 3e
       -1.0402752 -1.1965699 0.5455288 0.29978123
000120 19 ca 26 3e 15 03 73 bf a7 c9 40 bf 08 f9 7b 3e
       0.16288032 -0.9492658 -0.753077 0.24606717
000130 fb 05 9e bd 31 a8 8e be 4d 73 ca 3d 1c ee 8a bf
       -0.077159844 -0.27862695 0.09885273 -1.0853915
000140 7c 1a e8 be 61 68 b5 3e 4f 6d 45 3f c2 7d c3 be
       -0.45332706 0.35431197 0.77119917 -0.38181883
000150 02 f7 99 3e 56 55 aa 3d c8 f2 3e bf 02 12 7b bf
       0.30071265 0.08317058 -0.74589205 -0.9807435
000160 59 0b 2a bf 9e 53 84 3f 0f 56 0e bf 07 96 44 bf
       -0.66423565 1.0338018 -0.55600065 -0.76791424
000170 5b fc 8a 3f f8 09 5f bf f6 8b 5f 3f 48 b9 51 3f
       1.0858263 -0.87124586 0.8732294 0.8192334
000180 d2 38 c9 3f 08 52 ec 3e c9 b7 00 bd 37 89 40 bf
       1.5720465 0.46156335 -0.03142527 -0.75209373
000190 e4 33 68 be 44 8b 09 3f 05 a0 ab be 95 fd 8c bf
       -0.22676045 0.5372813 -0.33520523 -1.1014887
0001a0 f3 84 dd be 41 5b 6b bf d2 b2 b7 be 02 67 10 be
       -0.43265495 -0.9193612 -0.35878617 -0.14101794
0001b0 f7 ae dc 3d 95 c0 c1 3e ff 2f 57 3f 22 86 cd 3e
       0.107755594 0.3784224 0.8405761 0.40141398
0001c0 48 0d 5c be 86 8d cf 3e 06 7f 5e 3e 87 ec e2 3e
       -0.21489441 0.4053766 0.21728143 0.4432108
0001d0 96 92 76 3f 32 cb 27 3f 39 0e 45 bf ea 63 3d 3e
       0.9631742 0.65544426 -0.7697483 0.18495145
0001e0 94 ca 6d bf 06 4b 24 3f 41 fd 9e 3f d7 df 95 3e
       -0.92887235 0.64176977 1.2421037 0.2927234
0001f0 8d 1f 99 3f 9d 3f a5 bf 60 75 19 be d6 bd cd 3e
       1.1962754 -1.2910038 -0.14986181 0.40183896
000200 ed 13 f0 3e 92 d1 5c bf d2 80 70 bf 57 40 ec 3f
       0.46890202 -0.8625728 -0.93946564 1.8457135
000210 6e 0a 14 3f e0 f6 12 bf e6 aa 8a 3e 60 44 43 3e
       0.57828414 -0.5740795 0.2708351 0.19069052
000220 03 37 7c 3f 40 3f 0d 3a 51 cc 77 bf c7 30 b4 bf
       0.9852144 0.0005388148 -0.9679614 -1.4077386
000230 00 b1 dd be ce c6 35 3f 56 c5 9f 3f ec b4 1b 3f
       -0.43299103 0.71006477 1.2482097 0.6082294
000240 7e a1 cd be 48 df 99 bf 0a db 17 3f 55 4f a6 3f
       -0.4016227 -1.2021265 0.593186 1.299296
000250 39 37 0c 3c 2e f4 1f bf b1 eb 0c 3e 54 90 ae 3d
       0.008558088 -0.62481964 0.13761784 0.08523622
000260 77 30 7a be 97 a8 1d bf 0c ad 9b 3c 91 a5 1e 3f
       -0.2443255 -0.6158537 0.019003414 0.61971384
000270 f3 be 3e 3f 6b 1d 74 bf a6 5d 9b bf 77 9a 0e 3f
       0.74510115 -0.9535739 -1.2137954 0.55704445
000280 34 0b 8e 3f 89 a8 8d 3f e3 eb ce 3e 4e c4 a8 3e
       1.1097169 1.1067058 0.40414342 0.3296227
000290 b1 6e ae bf e9 3b b6 be 4f b3 b9 3f 38 5d 3c be
       -1.362753 -0.35592583 1.4507846 -0.18394935
0002a0 b9 1c 7e bf 18 e2 ba 3e 8e 0b 4b be 7d f5 de 3b
       -0.9926258 0.3650062 -0.19828627 0.006804167
0002b0 69 6e 6a bf ea 38 db 3e fa ea 63 3f 35 eb 72 3f
       -0.9157472 0.4281686 0.8903042 0.9489015
0002c0 68 76 7e bf 9b 53 80 bf ae 10 9c 3e e6 39 25 3f
       -0.99399424 -1.0025514 0.30481476 0.6454147
0002d0 91 59 79 3f 60 50 0f bf 07 6e c8 3f 2b 20 04 bf
       0.9740229 -0.5598202 1.5658578 -0.51611584
0002e0 cc 45 32 bf 59 a8 9a 3e a5 21 e1 be 9f 13 55 3e
       -0.6963775 0.30206564 -0.4397098 0.20808266
0002f0 c9 0b bc 3f 94 76 47 bf 9f ab 8b bf 83 ef 41 bf
       1.4691097 -0.7791531 -1.091175 -0.7575609
000300 d8 2e 36 bf 7f 28 46 3e b5 08 4c bf f2 15 92 bf
       -0.7116523 0.19351386 -0.79700786 -1.1412947
000310 cf 0e 20 bf 1d 0c 80 bf 45 a6 9a be 32 7a c9 bd
       -0.62522596 -1.0003697 -0.3020498 -0.0983776
000320 be 83 87 3f 09 07 7d bf 97 88 60 3d 7a 3f 88 bf
       1.058708 -0.9883886 0.054817762 -1.0644372
000330 f7 42 e8 3e ed 8f 15 bf 11 84 4c 3d f9 16 6b bf
       0.4536359 -0.5842274 0.049930636 -0.9183193
000340 63 62 2e be de a8 d6 be f1 66 5d bd a3 a0 88 3e
       -0.17029719 -0.4192571 -0.05405325 0.26685056
000350 ff 66 20 3e 5a 8f a4 3f 20 04 ec 3e ba 52 2c 3f
       0.1566429 1.2856247 0.46096897 0.6731373
000360 ae 5a 97 be eb 4a 6a 3f 14 23 1d bf 5a 98 be bd
       -0.2956137 0.91520566 -0.6138165 -0.093064025
000370 68 e5 98 3f 3b f8 73 bf fe 69 c9 3e 27 a8 6f 3f
       1.1945009 -0.95300645 0.39338678 0.93615955
000380 e5 97 73 bf 73 06 97 be 96 10 32 3f d7 21 ce be
       -0.9515365 -0.29497108 0.6955656 -0.40260193
000390 72 fb de be 9e 94 90 3f 23 d6 13 bf 2f a4 2a bf
       -0.43551213 1.1295354 -0.5774862 -0.66656774
0003a0 b9 b5 b7 3f b6 84 dd be f4 42 1a 3f 7a 43 31 bf
       1.4352332 -0.43265313 0.6025841 -0.69243586
0003b0 1e 10 18 3f 46 bb 94 3f 83 29 8c bf c5 21 d9 be
       0.5939959 1.1619651 -1.0950168 -0.42408577
0003c0 a5 a8 25 3f 5b 70 42 3f 0c 37 18 be 0b ff 07 bf
       0.64710456 0.7595269 -0.14864749 -0.5312354
0003d0 93 80 fc be c5 f3 07 bf 84 a3 63 bf fb 51 0a 3f
       -0.49316844 -0.5310634 -0.8892138 0.5403134
0003e0 69 07 83 bf 70 99 06 bf 0a eb 4e bf da 50 b3 be
       -1.0236636 -0.5257788 -0.8082739 -0.35022622
0003f0 d3 90 89 3f b6 47 c4 3e cd b0 19 bf 24 16 3a bd
       1.0747322 0.3833596 -0.600354 -0.04543127

vars.1 f4 [64]
000000 eb d0 5b 3d 67 f9 93 3c 45 de 32 3c 0c b2 3f 3d
       0.053666037 0.01806326 0.010917251 0.046800658
000010 10 24 77 3d d4 46 70 3d 2f a0 f4 3c 4d 61 1e 3c
       0.060337126 0.058661297 0.029861538 0.009666753
000020 06 af b0 3c 0e d5 6f 3d 35 4c db 3b ee f5 0c 3d
       0.021567833 0.058552794 0.006692434 0.034414224
000030 91 54 62 3d d8 0b b5 3d ab 7e 83 3c 4a cf 1f 3d
       0.05525643 0.0884015 0.016051611 0.039016046
000040 58 29 a9 3c 39 13 4b 3d 6a 08 9b 3c 06 93 17 3d
       0.020649597 0.04957888 0.01892491 0.037005447
000050 e8 53 9f 3c 7d a0 ff 3c d8 8f 12 3d 93 ff 8b 3c
       0.01944919 0.031204456 0.03578171 0.01708964
000060 ea 9b ff 3c 33 47 e2 3b 9f 3b 26 3d e8 94 80 3c
       0.031202275 0.0069054603 0.040584203 0.015696004
000070 8a d5 f0 3c dd ce b0 3d 85 0b 3d 3c cb 06 d1 3c
       0.029398698 0.08633206 0.011538391 0.025515934
000080 c2 db 2a 3d 52 0d 06 3d 73 31 02 bc 49 fd 8f 3c
       0.041713484 0.032727547 -0.00794636 0.01757683
000090 e1 63 87 3d 97 5c 9b 3c 26 d0 da 3b 52 ce 84 3d
       0.06610847 0.018965049 0.0066776453 0.06484665
0000a0 cc 2e df 3c 7e 90 31 3c 36 26 db 3c 21 3e 93 3b
       0.027243994 0.010837672 0.026751619 0.0044934903
0000b0 40 ce 38 3c c4 90 64 3d c3 3e f9 ba 22 3e 0c 3d
       0.011279643 0.05580212 -0.0019015897 0.034238942
0000c0 3d 84 3c 3d bf 32 50 3d 00 b4 6f bb 5c ea c4 3c
       0.04602455 0.050829645 -0.0036575794 0.024037533
0000d0 cb b5 1d 3d cb 0a ae 3d b0 f7 6e 3c df 1a 6b 3d
       0.03850345 0.08498152 0.0145854205 0.057398673
0000e0 a9 0b e9 3c 1e 60 68 3d 0c 8f ef 3b 42 6e 15 3d
       0.028447943 0.05673229 0.0073107537 0.036482103
0000f0 41 eb d7 3b a9 62 76 3c 06 a9 99 3c f2 55 8f 3c
       0.0065893237 0.015038171 0.018757354 0.017497037

vars.2 f4 [64]
000000 6b 76 6d 3f 75 76 2a 3f cf 73 11 40 5b db b5 3f
       0.92758816 0.66587 2.2726934 1.4207567
000010 43 98 6f 3f 3c 81 f5 3f 99 7a 38 3f f4 f4 80 3f
       0.9359171 1.9180064 0.7206207 1.0074754
000020 88 8d 3e 3f 80 ab 50 3f 6b 79 0c 40 cf 03 3e 3f
       0.7443471 0.8151169 2.1949108 0.7422456
000030 4c 23 08 40 0f 7f de 3f 04 14 8b 3f 3e 21 97 3f
       2.1271544 1.7382525 1.0865483 1.180702
000040 6c 3f 99 3f 46 67 a0 3f 01 e4 96 3f 61 71 8f 3f
       1.197248 1.2531517 1.1788331 1.1206475
000050 ef 27 fd 3f 46 20 56 3f 1c 36 67 3f 7f 96 91 3f
       1.9777812 0.83642995 0.9031694 1.1374053
000060 63 f8 5a 3f b8 63 69 3f 55 ff e8 3f a6 a1 3b 3f
       0.8553526 0.91167784 1.8202921 0.7329353
000070 79 18 08 40 74 e1 45 3f 17 71 06 40 ff 7d 30 3f
       2.1264937 0.7729714 2.1006525 0.68942255
000080 25 a4 bd 3f 5e 3a cd 3f a2 ed fd 3f 76 27 a2 3f
       1.4815718 1.6033437 1.9838145 1.2668293
000090 45 42 ff 3f b4 9f de 3f 09 81 c2 3f 10 d3 85 3f
       1.9942099 1.7392488 1.5195628 1.0455036
0000a0 b4 bd e9 3f 1c ad de 3f 91 7a f9 3f f4 69 b4 3f
       1.8261018 1.7396579 1.9490529 1.4094834
0000b0 68 33 e4 3f 3e ce 79 3f 04 56 8d 3f d6 e1 e6 3f
       1.7828188 0.97580326 1.1041875 1.803767
0000c0 4d 99 8b 3f bd 7d 9e 3f dc 35 d5 3f 92 d6 07 40
       1.0906159 1.2382122 1.6657062 2.1224713
0000d0 06 b2 a9 3f 71 df 82 3f 88 77 80 3f 81 12 a8 3f
       1.3257453 1.0224439 1.0036478 1.3130647
0000e0 8f 0e 9a 3f 8f 26 44 3f 56 2f 86 3f f2 f7 93 3f
       1.2035693 0.76621336 1.0483196 1.1560042
0000f0 83 91 a5 3f f9 aa 55 3f 94 de 95 3f 10 10 b3 3f
       1.2935032 0.8346401 1.170855 1.3989277

vars.3 f4 [64]
000000 6e 67 9c bf ce 44 e8 3d fe a0 04 bf 6b 40 0c bf
       -1.2219064 0.113412485 -0.51808155 -0.54785794
000010 b2 ec 9f bf 17 1d 45 bf fe 9e 3a bf a7 a1 b8 bf
       -1.2494109 -0.7699751 -0.7289885 -1.4424332
000020 b2 1c 93 bf 93 1e 58 bf 13 46 73 be bc 26 2a bf
       -1.1493132 -0.8442165 -0.237572 -0.66465354
000030 75 85 03 bf c1 0e 10 bf 0c b4 8e be bd 06 e8 be
       -0.51375514 -0.5627251 -0.2787174 -0.4531764
000040 8a 4a a6 bf 9c a9 01 bf 3c 8f 6f bf cd ad d3 be
       -1.2991498 -0.5064943 -0.93577933 -0.41343537
000050 10 6a 53 bf 82 c1 52 be 3b 24 a6 bf 08 ad aa bd
       -0.82583714 -0.2058163 -1.2979807 -0.08333784
000060 ee d9 b7 bd 0a c5 c3 3d 23 ce 5d bf ce 20 8d be
       -0.08977114 0.095590666 -0.86642665 -0.2756409
000070 11 b4 ce be 4f 12 59 bf 36 c0 44 bf df ab 3f bf
       -0.40371755 -0.8479356 -0.7685579 -0.7487163
000080 e2 b4 d3 be 60 d7 14 bf 6d aa 9f be 60 ce fa be
       -0.4134894 -0.58141136 -0.31184712 -0.48985577
000090 9e 03 bf be 7d 93 2a bf 10 37 21 bf 05 c5 bc bf
       -0.37307447 -0.666313 -0.62974644 -1.4747626
0000a0 7e b7 64 bf b1 32 98 be d9 8a 8b be 9c 98 d1 be
       -0.89342487 -0.29726174 -0.2725437 -0.40936744
0000b0 44 92 11 bf 90 ba 87 bf 18 a4 95 be 34 2a 1b be
       -0.5686381 -1.0603809 -0.29226756 -0.15152818
0000c0 75 50 c8 bf 92 92 1b bf de e8 50 be 27 f3 78 bf
       -1.5649554 -0.60770524 -0.20401332 -0.9724602
0000d0 dd c9 4c 3e 1f d1 7e bf f7 24 5d bf eb 26 e7 be
       0.1999888 -0.99537843 -0.8638453 -0.4514688
0000e0 e3 7d ec be 82 7d 1b bf 2c de 2e 3b 53 8e ea be
       -0.46189794 -0.60738385 0.0026682718 -0.4581171
0000f0 ba 2f 7b be 98 34 13 bf 90 8c 3b 3d bb 56 8f bf
       -0.24529925 -0.57502127 0.045788348 -1.1198343

vars.4 f4 [64, 64, 3, 3]
000000 06 95 9a 3c 8d 12 31 3e 76 1d b0 be 95 19 98 bc
       0.018869888 0.17292233 -0.34397477 -0.018566886
000010 b2 92 e9 3d af 01 ec be 14 9c 1f bf c1 80 6a bd
       0.11404933 -0.46095034 -0.6234753 -0.057251696
000020 98 51 64 be cf e6 18 bd a9 35 e2 bd e9 a0 f4 be
       -0.2229675 -0.03732949 -0.11045391 -0.47779015
000030 e8 80 93 bd 0d 32 4f 3d 9f 3e cf be 93 a1 48 3d
       -0.07202321 0.05058484 -0.40477464 0.048982214
000040 b6 63 a7 bd fc ef 3d bf 8c 58 aa bd 74 c6 77 3d
       -0.08173315 -0.7419431 -0.0831767 0.060491994
000050 42 9b 44 bb 17 74 81 3e 32 5a fe 3d cb 07 4b bd
       -0.0029999767 0.25283882 0.12419547 -0.04956798
000060 13 04 af 3e 3e 10 6a be 99 6a 5b 3d d6 8f 4e 3e
       0.34182796 -0.22857758 0.053568456 0.20172057
000070 e6 5a 7c be 21 dc 40 3d 10 51 5a be 35 9b 7a be
       -0.2464405 0.04708493 -0.21319985 -0.2447327
000080 22 76 92 3e 3e dd c3 be 2e 15 54 3e 6a 1d dd bd
       0.28605753 -0.38254732 0.20711204 -0.10796626
000090 86 53 96 3e 3c 93 a2 3e 96 c5 7a 3e 4d 4c 12 3d
       0.29360598 0.31752956 0.24489436 0.035717297
0000a0 6d 71 7e 3d 3e 9f 57 be 11 78 19 be 63 ee fe be
       0.06211989 -0.2105684 -0.14987208 -0.4979125
0000b0 d6 1c 0b be ed 13 c8 3d 8c bc a9 be aa 9c 7b be
       -0.13585219 0.097694255 -0.33151662 -0.24571481
0000c0 d6 e1 08 bf 6c 16 82 be 42 fa b5 3e 66 29 14 be
       -0.534696 -0.25407732 0.35542494 -0.14468917
0000d0 7d 5f e6 bd fb 4b f8 3a b8 bb 5c be b3 09 c9 3e
       -0.11248682 0.0018943542 -0.21555984 0.39265212
0000e0 a9 b2 98 3e da d8 5b bd 18 e8 84 be 5e e4 29 be
       0.29823807 -0.053673603 -0.25958323 -0.16591021
0000f0 d0 70 a7 be 84 ff f2 be 3e 01 37 bf 3d a3 3a bd
       -0.32703257 -0.47460568 -0.7148627 -0.045565832
000100 80 cd ca 3e 6c bd 55 3d 4f c3 76 bd 49 00 c8 bd
       0.3960991 0.0521826 -0.060244855 -0.097656794
000110 f2 f5 c8 3d 43 34 c9 bd 24 40 c7 3d 59 a8 a6 be
       0.09812535 -0.09824421 0.09729031 -0.32550314
000120 3a 36 c3 3e f8 8c 8b 3e c1 8a cb 3d 42 31 d1 bc
       0.3812731 0.27255988 0.099385746 -0.025536183
000130 7e 8c 91 bd 6f b1 94 be 2f 8e ec be f9 ec d8 be
       -0.07106875 -0.2904162 -0.46202227 -0.42368296
000140 30 94 25 bf 8e 8f 73 3e 36 c9 a7 3d f6 ef 97 3a
       -0.6467924 0.2378523 0.08192675 0.00115919
000150 3f f9 cd be e5 22 69 bd 42 f1 70 3e 11 27 fb be
       -0.40229222 -0.056918044 0.23529533 -0.49053243
000160 9d 93 34 be 8a 76 1c 3e a3 ea bc 3d a5 12 19 be
       -0.17634435 0.15279594 0.09224441 -0.14948519
000170 9c d8 31 3d dd 43 53 3d ef 77 c6 bc 1b 7e 32 3d
       0.043419465 0.05157839 -0.02422711 0.043577295
000180 b3 16 c9 3e a0 f3 a8 bc 23 fe 32 be dd ca 69 be
       0.3927513 -0.020623982 -0.17479758 -0.22831292
000190 f6 02 de 3e 7f 16 0f 3e f3 e2 e2 bd 33 28 c6 bd
       0.43361634 0.13973425 -0.110784434 -0.09675636
0001a0 d4 2d 1d be bb 46 b2 be 04 28 cf bd 99 c6 03 bf
       -0.15349513 -0.34819588 -0.10115054 -0.5147491
0001b0 10 2c 11 3c 2f 43 34 be fb 0b 37 be c3 e5 cb bd
       0.008860603 -0.17603754 -0.17875664 -0.09955933
0001c0 59 22 22 3d c4 54 a6 be 47 f5 2e 3e 43 89 9c 3b
       0.039583538 -0.32486546 0.17085753 0.004777105
0001d0 eb e5 5b be 30 21 98 be 46 ee 73 3e 0f 98 4c be
       -0.21474425 -0.2971282 0.23821363 -0.19979881
0001e0 86 79 0f 3e b5 a4 51 bd c8 15 d4 3e 0c 20 19 3d
       0.14011201 -0.051182467 0.41422868 0.037384078
0001f0 49 83 6a be 78 a6 a7 3c 5d f7 04 bf 89 e0 4a 3d
       -0.22901644 0.02046512 -0.51939946 0.04953054
000200 3a 29 61 be 20 5c d6 be dd d0 23 bf aa 96 87 be
       -0.21988383 -0.4186716 -0.63990575 -0.26482135
000210 c3 09 fb be be eb 4f be 4c 51 61 be 13 92 a2 3c
       -0.49030885 -0.20304772 -0.22003669 0.019845044
000220 fe 10 c2 bd ab e1 98 3d 50 d8 20 3e 0d a6 14 3e
       -0.09475897 0.07464918 0.15707517 0.14516468
000230 3c fa 09 3f 24 56 00 3e 99 21 04 3e 54 c5 a0 3e
       0.5389745 0.1253286 0.12903441 0.3140055
000240 37 8a 2e 3e 33 b8 1e bf b6 4f 22 bf 8b fa 05 bf
       0.17044912 -0.61999816 -0.6340288 -0.52335423
000250 aa 6e 5b bf 06 ce 03 be 31 de 4b 3e 98 b2 3e be
       -0.85715735 -0.1287156 0.19908978 -0.18622816
000260 6d 3e 56 be 8f d2 e3 bd f1 98 2b 3d a3 c5 5a 3e
       -0.20922251 -0.11124145 0.041893903 0.21364455
000270 dc 0c 0d be 6d 70 da 3d b4 10 10 3f fe 47 7c bd
       -0.13774437 0.10665975 0.56275487 -0.061592095
000280 94 aa 9a bd 83 72 49 3e d1 c9 a6 be 65 86 50 be
       -0.075520664 0.19672589 -0.3257585 -0.20363767
000290 eb 37 a0 be 68 0c 12 bf f8 52 06 be 63 85 ad 3d
       -0.31292662 -0.5705018 -0.13117588 0.08472707
0002a0 9e 31 d7 3d 2e e0 48 3e 87 f4 eb bc d3 c3 10 bf
       0.105075106 0.19616768 -0.028803123 -0.56548804
0002b0 55 63 c4 be 2d 46 52 be 00 ba 69 be a6 fb e2 bd
       -0.38357034 -0.20534582 -0.2282486 -0.110831544
0002c0 4b d2 b4 be fa d5 f4 3c 96 ba 24 3e ca b7 4d 3e
       -0.3531669 0.029887188 0.16086802 0.20089641
0002d0 b0 3b fb be bb c7 02 3f 0a c3 c1 bc 68 d0 cb be
       -0.49068975 0.51086015 -0.023652572 -0.3980744
0002e0 ce 20 98 be 9c 40 15 3e f8 0a d9 be c5 b7 7f be
       -0.29712528 0.14575428 -0.4239118 -0.24972446
0002f0 ba c5 52 3e f9 54 9e bc 5f 0d a6 3e 26 e1 4f 3e
       0.20583239 -0.019327627 0.32432076 0.20300731
000300 2b ce 92 be 2c e5 0a be b3 7d 84 bd 5c 4f f3 be
       -0.2867292 -0.13563985 -0.06469288 -0.47521484
000310 b9 4c 95 be 12 72 00 bf c5 60 b8 be 7b 96 1c 3e
       -0.29160097 -0.5017406 -0.3601133 0.15291779
000320 d5 11 cc 3d 3d ae 82 be 20 61 50 be 7d 9f 47 bd
       0.09964339 -0.25523558 -0.2034955 -0.048736084
000330 26 85 c3 bd 22 34 4a 3c 61 c2 27 be b3 54 98 bd
       -0.095468804 0.012341531 -0.16382743 -0.0743803
000340 fb e7 1c 3f 92 28 12 3f 89 c4 b4 be 4d 60 3f 3d
       0.61291474 0.57093155 -0.35306194 0.0467227
000350 72 ee df 3e ba 04 61 bd cd 2e 57 3e 21 78 b3 3e
       0.43736607 -0.05493615 0.21013947 0.3505259
000360 90 f6 63 be 31 45 33 bd 27 b7 3f 3c a9 c9 38 bf
       -0.22262025 -0.043767158 0.011701382 -0.7218271
000370 1d eb 77 be 1f 34 b1 3e 1d f4 f5 be ad 04 cf bd
       -0.24210782 0.34610078 -0.48037806 -0.10108314
000380 2e c6 68 3e c7 8e f1 3c 74 76 25 be b3 99 18 bf
       0.2273185 0.029487027 -0.16158468 -0.59609526
000390 b3 56 14 bc 67 fc e9 3d cd d9 11 bd 3f 0f 84 3e
       -0.009053874 0.11425095 -0.0356081 0.25792882
0003a0 3d ae bf 3d b6 46 62 bd be 90 52 be fe 0e 71 be
       0.09359405 -0.055243216 -0.20563027 -0.23540875
0003b0 9f e2 d2 be 99 b5 9e 3d d1 b4 90 be 79 32 84 3c
       -0.41188523 0.07749481 -0.28262952 0.016137348
0003c0 29 c3 45 bf 3c 4b f8 bd c6 eb 88 be aa 2f 54 bc
       -0.77250916 -0.12123725 -0.2674238 -0.012950817
0003d0 f6 a1 56 3e 22 83 20 3e 65 00 a3 be 96 d6 4f 3e
       0.2096022 0.15675023 -0.31836239 0.20296702
0003e0 98 fe 69 be df 99 c1 be 9c bd 79 be b1 58 03 bf
       -0.22851026 -0.37812707 -0.24388736 -0.5130721
0003f0 ad b7 ed 3d cc 0d 1b 3e a5 2d 0d 3d 90 b3 b5 be
       0.11607299 0.15141982 0.03446736 -0.35488558

vars.5 f4 [64]
000000 2c 37 c7 b9 30 30 c1 38 74 89 ab 3b 72 01 10 3a
       -0.00037997344 9.211933e-05 0.0052348915 0.00054933794
000010 69 e6 6d 3a 0f 0d 5e 3b 5a b8 dc 39 73 75 6b 39
       0.00090751663 0.0033882295 0.00042099023 0.000224551
000020 f0 7d 2e ba f4 5f a3 3b a6 3d 14 3a ce 26 89 3a
       -0.00066563394 0.0049858037 0.0005654938 0.0010463835
000030 df 53 44 3a d6 b7 31 3b e2 7e cb 37 20 78 21 ba
       0.00074893044 0.0027117631 2.425857e-05 -0.00061595626
000040 b3 8c 0d 39 f8 b3 bb 38 b9 58 8f 3a b3 75 dc 3a
       0.00013499222 8.950377e-05 0.0010936476 0.0016819745
000050 96 40 12 3b 34 ea ff 3a f6 db 2a b9 40 1e 66 3a
       0.0022316328 0.0019524754 -0.00016294405 0.00087783113
000060 8e a5 a9 39 14 b7 b6 3b d9 48 23 3b ca 25 ad 39
       0.0003235754 0.005576024 0.0024915247 0.00033025286
000070 2f 4c 64 ba 33 f7 d3 b7 77 32 f6 39 61 05 1e 3b
       -0.0008708862 -2.5268271e-05 0.00046958376 0.0024112093
000080 aa 20 0f 3b 22 c9 93 3a 33 7f b9 39 26 e2 06 3b
       0.0021839538 0.0011275152 0.0003538072 0.0020581572
000090 d3 ce 22 ba 83 2a 66 ba fe e8 f4 3a cd 19 08 bb
       -0.0006210629 -0.00087801385 0.001868516 -0.0020767332
0000a0 43 9f 4b 3a d7 64 35 3b 64 45 8f 3a 2b 45 b0 3a
       0.00077675673 0.0027678513 0.0010930714 0.0013448348
0000b0 80 21 2c 3b f1 5b 7c 3b 2d aa 88 b9 8f 42 88 3a
       0.0026265085 0.003850695 -0.00026066732 0.0010395813
0000c0 0d 91 b7 ba a5 5c 8e 3a f3 a6 3f 3a 95 10 5b 3a
       -0.001400502 0.001086135 0.0007310949 0.0008356658
0000d0 f5 0b 7a ba 37 70 eb ba 36 07 92 3a 02 2f 9c 3a
       -0.0009538525 -0.001796252 0.0011141065 0.0011915865
0000e0 58 ed 8b b9 0e 4e 2e 3a 17 22 5c 3a 14 68 d0 b9
       -0.0002668898 0.00066492043 0.0008397414 -0.00039750396
0000f0 e9 49 8d 3b 35 f1 dc b9 85 60 ad 3a 7f ab 97 3a
       0.0043117893 -0.00042141383 0.0013227618 0.0011571496

vars.6 f4 [64]
000000 89 43 bf 3f e8 ab ce 3f f1 e0 89 3f 95 7e a5 3f
       1.4942485 1.6146212 1.0771772 1.2929255
000010 fd b9 cf 3f e2 c8 bf 3f 5d 65 99 3f e0 99 b2 3f
       1.6228634 1.498318 1.1984059 1.3953209
000020 60 54 96 3f 9e 7c 8f 3f 0f ff a5 3f 6b 33 bf 3f
       1.1744499 1.1209905 1.2968463 1.4937567
000030 7e ae c2 3f c0 14 b0 3f 1a 6e 9a 3f db e3 d5 3f
       1.5209501 1.3756332 1.206485 1.6710161
000040 6f a5 ce 3f ea d2 eb 3f b5 b1 b0 3f 55 92 b9 3f
       1.6144236 1.8423741 1.3804232 1.4497782
000050 40 e9 d0 3f 8b 45 94 3f 3e 1b cd 3f 41 b6 9f 3f
       1.6321182 1.1583723 1.6023939 1.2477494
000060 47 89 85 3f e3 e9 f2 3f 8e 85 b5 3f 63 f5 cc 3f
       1.0432519 1.8977627 1.4181383 1.6012386
000070 a7 04 ad 3f 51 f9 bd 3f e9 42 c6 3f 92 c5 a7 3f
       1.3517045 1.484171 1.5489169 1.3107169
000080 a5 91 9c 3f e7 99 b1 3f 7d 7d bc 3f 4c c7 c5 3f
       1.2231947 1.3875092 1.4725796 1.5451446
000090 2e 40 bf 3f 53 ee 82 3f 7d c1 c0 3f c9 6a c8 3f
       1.4941461 1.0228981 1.5059048 1.5657588
0000a0 d2 a1 bf 3f 76 18 c1 3f 58 49 ba 3f 77 c8 87 3f
       1.4971259 1.508559 1.4553633 1.0608052
0000b0 bd 12 b7 3f 16 a5 9f 3f d2 f0 d3 3f e2 d3 c5 3f
       1.4302593 1.2472255 1.6557868 1.5455287
0000c0 81 7b a4 3f b9 be a6 3f 0f 15 85 3f 14 8d 98 3f
       1.285019 1.3026954 1.0397052 1.1918054
0000d0 8b 60 b0 3f c0 98 ae 3f 71 05 9b 3f f3 4b cd 3f
       1.3779463 1.3640366 1.2111036 1.6038803
0000e0 73 1d b0 3f af c1 bb 3f 51 c1 b4 3f 7f ea cd 3f
       1.3758987 1.4668483 1.4121495 1.6087188
0000f0 49 c1 e9 3f db f8 c7 3f ca 44 8b 3f e3 ab a1 3f
       1.8262111 1.562282 1.0880368 1.2630581

vars.7 f4 [64]
000000 6c 05 d2 be ea 86 7b 3d 47 ca 4b bf 19 dc 88 bf
       -0.41019762 0.06140796 -0.79605526 -1.0692168
000010 db 57 90 bf 61 39 6d be 73 68 08 be c2 52 80 be
       -1.1276811 -0.2316642 -0.13321094 -0.2506314
000020 3d 0b 6e bf 19 86 eb be 5a b8 af be a9 24 6c bf
       -0.929859 -0.46000746 -0.34320337 -0.9224344
000030 97 de 5e bd ec a5 da be 7f 6c 26 bf cd 0f d9 3d
       -0.054411497 -0.42704713 -0.650093 0.10598717
000040 86 50 e5 be 3d 67 66 be d4 ac b3 3d dd e9 05 be
       -0.44787997 -0.2250032 0.08773199 -0.13077493
000050 45 07 29 bf de 7d ce be 9d fa 10 be cf 3b 87 bf
       -0.6602672 -0.40330404 -0.14158101 -1.0565127
000060 71 dd b2 be dd 94 2a bf 1f 5b a2 bf 1a e0 cb bb
       -0.3493457 -0.666334 -1.2684058 -0.0062217833
000070 42 56 b1 3d 64 ce 17 bf dd 17 33 3a 2c f2 44 bf
       0.086590305 -0.592993 0.0006831864 -0.76932025
000080 b4 54 4a bf b1 69 f5 be 5b 41 1c bf 41 f6 f3 be
       -0.79035497 -0.479322 -0.61037225 -0.47648814
000090 94 08 97 be 98 bb 1d bf 76 b3 61 bf 2e 85 8f be
       -0.29498732 -0.6161437 -0.8816446 -0.28031296
0000a0 1c 23 87 be 56 4c 3e bf 29 c2 c2 be 8f ba 5b bf
       -0.26393974 -0.7433523 -0.38038757 -0.8583154
0000b0 86 ec 73 bf 19 c5 47 bf 17 0f 44 bf 9a 8e be 3c
       -0.9528278 -0.7803512 -0.76585525 0.023261357
0000c0 cb ba 19 be 95 51 de be 7c c0 3d bf 8e cf 91 bf
       -0.15012662 -0.43421617 -0.7412183 -1.1391466
0000d0 76 2e 3d bd a4 fe 30 bf aa 9b 03 bf 10 ce 1b 3d
       -0.046186887 -0.6913855 -0.514094 0.038038313
0000e0 ec a9 0d bf a5 cd 16 bf 5b 53 fc be 29 53 db be
       -0.55337405 -0.5890754 -0.49282345 -0.42836884
0000f0 93 85 2d bf 95 6a f1 be 1f 97 53 bf 9a d3 8e bf
       -0.67781943 -0.47151628 -0.8265247 -1.1158326

vars.8 f4 [64, 64, 3, 3]
000000 6f 0e 2e be 07 24 48 be 63 5e 2e 3e e6 59 79 3c
       -0.16997693 -0.19544993 0.17028193 0.015219187
000010 c0 38 14 3d c3 1d 72 3e 40 76 05 bf ce ca 5c 3e
       0.036186934 0.23644166 -0.5213356 0.21561739
000020 f7 31 dc bd e2 25 de bd 67 5f 51 3e 5d 53 1e bf
       -0.107517175 -0.10847069 0.2044655 -0.6184595
000030 8a 47 3a 3d 00 31 d6 3d e9 a3 af be 02 49 1f be
       0.04547838 0.10458565 -0.3430474 -0.15555194
000040 4c d7 a4 be 7d da 7f be 7c 12 19 3d 41 40 60 be
       -0.32195508 -0.2498569 0.037371144 -0.21899511
000050 32 15 b4 be 48 1b 22 3c 2d fc 63 3d f2 50 66 be
       -0.3517242 0.0098942 0.055660415 -0.22491816
000060 21 38 dc bd eb c0 85 bb 61 a0 fd be 3c 5f 98 3e
       -0.10752893 -0.0040818355 -0.49536422 0.29760158
000070 ca 96 e2 3e 45 99 9a be 3b 7e f1 3e d2 5e 31 3f
       0.44255668 -0.3019506 0.4716662 0.6928531
000080 89 a9 4f 3e 6f fd 26 be c0 66 01 3f 67 6d 2a 3e
       0.20279516 -0.16307615 0.5054741 0.16643296
000090 a2 49 b1 be 4d 51 5e be 18 a2 91 be 97 8d c1 be
       -0.3462649 -0.21710701 -0.2844398 -0.37803337
0000a0 dc 00 68 bf 73 d2 b1 be 29 62 4b bc 65 d1 cb bd
       -0.9062631 -0.34730873 -0.01241354 -0.09952048
0000b0 85 5b ca bd 43 ca f1 bd 36 23 e7 3c 91 6c 9a bd
       -0.09880737 -0.118061565 0.028215032 -0.07540239
0000c0 f0 61 fa bd 5e f9 88 bc b0 5f cc be 6a 7c 02 bd
       -0.12225711 -0.01672047 -0.39916754 -0.03185693
0000d0 64 f7 42 3e 58 2b a2 3e 8f 3e 0c 3e ea 26 ca 3e
       0.19039685 0.31673694 0.13695739 0.39482814
0000e0 96 cd e7 3a ac 1b 36 3e 7c a1 3c 3e c7 08 44 bd
       0.0017685171 0.17783993 0.18420976 -0.047859933
0000f0 33 32 eb 3d 6a 50 80 3e 9c 6c 83 3d 3f 86 11 3a
       0.11484184 0.2506135 0.064172 0.0005551315
000100 85 12 ce 3e f6 29 6a 3e 3e 02 83 3e dc 9e 05 3f
       0.40248504 0.2286757 0.25587648 0.52195525
000110 8f 8a 35 3e 2d a1 43 3e a7 52 33 3e 8a d9 b7 3e
       0.17728637 0.19104452 0.17511998 0.35908157
000120 84 40 60 be 36 c2 2b be a6 2b 94 be 6a 95 78 3e
       -0.21899611 -0.16773304 -0.2893955 0.24275747
000130 0d fa 81 be ae 21 45 3f 79 09 c8 3c ab fd fa 3e
       -0.25386086 0.77004516 0.02441858 0.49021658
000140 be 17 93 bc 91 06 1e 3d c0 d1 d7 be a5 18 2b bf
       -0.017955657 0.03858048 -0.42152214 -0.6683448
000150 07 e2 ab be 16 bd 42 bf c2 d1 33 bf f1 4b 15 be
       -0.33570883 -0.7606977 -0.7024194 -0.1457975
000160 37 90 44 bf 66 93 fe be ab c4 24 3f c7 dd 26 3f
       -0.76782554 -0.4972183 0.6436259 0.65182155
000170 55 68 69 3e 8a b4 cb 3e e9 51 c9 3e b7 5b 91 3e
       0.22793706 0.39786178 0.39320305 0.28390285
000180 7f f7 78 3e e0 b3 c7 3e dd e2 82 be 0c 4a d7 3d
       0.24313162 0.3900442 -0.25563708 0.1051217
000190 27 67 80 3e 29 be 87 be b9 7b 09 3e 46 a8 c6 3e
       0.250787 -0.26512268 0.13426103 0.38800257
0001a0 52 11 bf be c1 2b 14 3e 4f d7 e5 3d d5 01 93 be
       -0.37317902 0.14469816 0.112227075 -0.28712335
0001b0 16 1b 77 be 6a 34 71 3c 80 da 89 bb 09 31 7e 3d
       -0.24131426 0.014721969 -0.0042069554 0.062058482
0001c0 c4 85 a0 be 66 73 20 be 4d ac c2 be 28 70 ab bd
       -0.31352055 -0.15669021 -0.3802208 -0.083710015
0001d0 64 0a e0 3e ea 5a 86 3d 6c 73 81 3d 02 1f be 3c
       0.43757927 0.06560309 0.06320843 0.023208145
0001e0 e5 86 7b be 51 30 78 be 19 57 04 bf b3 7c 74 be
       -0.24563177 -0.24237181 -0.516954 -0.23875694
0001f0 69 d1 e4 be f8 ec f7 3d af 9e b5 3e 7d 6d 93 3d
       -0.44691017 0.12105745 0.35472628 0.071986176
000200 8e f2 c3 bc 0d 26 39 3e c3 56 b2 bd c3 4a 28 3d
       -0.02391937 0.18080921 -0.08707955 0.041086923
000210 69 57 71 3e 9b 9f 74 3e ec 3b 51 3e f2 e2 f2 be
       0.235685 0.2388901 0.20433015 -0.4743877
000220 89 b1 6c 3e c0 e0 06 be a3 11 23 bf 6b 43 81 be
       0.231146 -0.13171673 -0.63698786 -0.25246748
000230 80 96 42 3e fd c1 f8 be 22 36 f2 3d 82 04 19 bd
       0.19002724 -0.485855 0.11826731 -0.037357815
000240 60 12 41 bf 31 29 a9 be 8a 6d a7 bd c1 83 b5 be
       -0.75418663 -0.3303924 -0.0817519 -0.35452083
000250 c8 ed cd be 74 26 49 be e3 60 19 bf 2e b1 0e be
       -0.40220475 -0.19643575 -0.5991346 -0.13934776
000260 80 bf 14 be 5b 4d 4c bc df 9a b6 3e 30 da 99 3e
       -0.14526176 -0.012469615 0.35665032 0.30049276
000270 49 77 fe 3c b5 b3 78 3e 25 8d 8d 3e 8b 70 a6 bb
       0.031062739 0.24287303 0.27646747 -0.005079334
000280 ae d0 11 3e 2a d9 98 3d 94 59 ab 3e 71 cb d3 3e
       0.14239761 0.07463296 0.3346678 0.4136615
000290 2e ac 27 be c6 20 50 3e ff 3b a0 3d 8e 8c d8 be
       -0.16374275 0.20325002 0.07823943 -0.42294735
0002a0 e5 28 aa 3e 45 ab 9b 3e 92 19 03 3c 71 4e 4a 3e
       0.33234325 0.30404106 0.008001702 0.19756486
0002b0 21 07 c5 3e 94 b7 84 bd 8e 68 d3 3e be 47 3a 3d
       0.38482 -0.06480327 0.41290706 0.045478575
0002c0 50 f5 80 bc f0 23 99 bd 9d 90 ff 3d ed 74 8d 3d
       -0.015741974 -0.07477558 0.12478755 0.069070674
0002d0 ca d4 13 be 9e 3e 4c 3e 94 95 03 bf 86 e7 17 3d
       -0.14436641 0.19945762 -0.51400113 0.037086032
0002e0 79 68 4d 3c e4 67 11 be 07 c7 c4 3d c9 52 1b be
       0.012537115 -0.14199787 0.09608274 -0.15168299
0002f0 2f 37 1c bc fe ba e2 3e d3 ac aa 3e ad f2 77 3d
       -0.009534641 0.4428329 0.3333498 0.060534168
000300 6f 3b 00 3f 4b e3 12 3f e2 e2 82 3e be 2c c6 3e
       0.5009069 0.5737807 0.25563723 0.3870601
000310 fd 8d fb 3e 61 cc bf 3d 27 52 c7 3d 96 f9 46 be
       0.49131766 0.09365154 0.09732466 -0.19431147
000320 6e fc d0 be 36 ae 3c bd d7 00 a5 3e 11 a0 71 be
       -0.4081759 -0.046064578 0.32227203 -0.23596217
000330 4b fe 83 3e 91 4e e2 3e ed 30 97 be ad 76 fb bd
       0.25779948 0.44200566 -0.29529515 -0.12278495
000340 4a a6 0d 3a 71 90 33 be 00 63 24 be 57 fe 5a bc
       0.0005403502 -0.17535569 -0.1605339 -0.013366303
000350 38 fd 5a 3e 0f e4 a0 bd 8b 82 a1 3e 01 3b d6 bd
       0.21385658 -0.07855999 0.3154491 -0.10460473
000360 97 80 35 3e b8 c6 45 3e 21 eb 07 bf 43 06 fa be
       0.17724834 0.19314086 -0.53093153 -0.48832902
000370 78 ea 3f be b4 35 f1 be 94 75 82 3e 4a 5b 77 3e
       -0.18741786 -0.47111285 0.2548033 0.24155918
000380 05 b9 d8 be 46 38 03 3f df 92 22 3f 77 4b 3b 3e
       -0.4232866 0.5125774 0.6350536 0.18290506
000390 cb 95 00 3f c3 32 5c 3e 90 0f 55 3c 46 71 6d 3e
       0.50228566 0.21503739 0.013004199 0.23187742
0003a0 3b 4a 94 3e 84 3f 60 bd 94 a3 d6 3e 22 9d 59 3e
       0.28962883 -0.054748073 0.41921675 0.21251348
0003b0 b3 af cf bd e4 be 70 3e ca 1d 05 be 6e c1 dc 3d
       -0.10140934 0.23510319 -0.12999645 0.10779081
0003c0 fa bb 83 3e 1e 1b da bd 7f f8 31 3c cd d9 87 bd
       0.25729352 -0.106497034 0.010862469 -0.06633339
0003d0 a3 2d e8 3d 70 a1 d9 bd 8b 46 26 be 37 1e 06 3e
       0.113368295 -0.10626495 -0.16237848 0.13097464
0003e0 c4 25 67 3e 64 d4 2c be 56 5f a4 3d 41 56 b6 bd
       0.22573 -0.16877896 0.080259964 -0.089031704
0003f0 a2 5d f2 3d 75 d3 05 3f 29 24 a2 bd 02 d4 9c 3e
       0.11834265 0.5227578 -0.07917053 0.306305

vars.9 f4 [64]
000000 1a ce 71 3b 59 0d f9 ba 21 ac 9b 3a e3 ae e1 3a
       0.0036896528 -0.001900117 0.001187686 0.0017218258
000010 f9 ba 44 3a 7b f8 d8 3a 8e 53 0f 3b 8a 11 90 b9
       0.0007504668 0.0016553545 0.002186987 -0.00027478888
000020 2f b9 99 3a a4 60 77 39 5a 8d 59 b9 6f 4c b9 3a
       0.0011728163 0.00023591757 -0.0002074739 0.0014137159
000030 ef ae e9 b9 6d 24 f6 3a c5 7b e6 38 0e 55 0d 3b
       -0.0004457156 0.0018779166 0.000109903085 0.002156559
000040 e5 83 d0 3a b3 56 36 3b 1c f6 ec b9 3b a2 2f ba
       0.0015908448 0.0027822673 -0.00045196794 -0.00066998944
000050 05 fb 8d 3a 5f 4e 02 3a 49 e8 64 39 f8 7f 42 3a
       0.0010832256 0.00049707846 0.00021830307 0.00074195815
000060 c1 b3 35 bb 13 65 4e 3a ec 5f 78 b9 b5 a3 9e 3a
       -0.002772555 0.00078733376 -0.00023686857 0.0012103232
000070 6e dc 36 3b 3a f5 10 3a b5 72 ae 3a 96 88 a3 3a
       0.0027902382 0.00055297057 0.0013309332 0.0012476619
000080 85 9e 5f 3b 74 7f 31 3a 9a a6 c3 b9 6d 2a 46 3a
       0.0034121585 0.0006771006 -0.00037317426 0.00075594225
000090 35 76 2b 3b ba a7 d4 38 43 8a e2 39 b0 79 a5 3a
       0.0026162986 0.00010140189 0.00043209092 0.0012624767
0000a0 dc 34 a8 3a c7 0b e5 39 a7 b1 a0 ba f6 12 e1 b8
       0.0012833136 0.00043687058 -0.0012259976 -0.00010732368
0000b0 6a f9 10 bb 38 c5 17 bb 7f 2d f6 38 07 35 94 3a
       -0.0022121319 -0.0023158323 0.000117386684 0.0011307307
0000c0 53 90 74 39 7e 05 1c bb ea b7 66 3a 30 1b c8 3a
       0.00023323418 -0.0023806985 0.0008801209 0.0015266892
0000d0 5d 92 71 3a 23 00 23 3a cd 6a d4 37 23 55 07 3a
       0.000921523 0.0006217977 2.5322102e-05 0.00051625277
0000e0 c8 90 9f 3a 1f 63 d7 3a 10 e3 5b ba 4c fc bf 3b
       0.0012173885 0.0016432739 -0.0008388022 0.0058589336
0000f0 d8 71 2f 3b e5 e8 88 39 3f 33 01 3b 89 cf 20 3a
       0.0026770737 0.0002611346 0.0019714383 0.0006134441

vars.10 f4 [64]
000000 b5 2f bc 3f 78 7e 90 3f 56 d5 6f 3f 91 8d 85 3f
       1.4702059 1.1288595 0.936849 1.0433828
000010 38 f3 86 3f 2a 92 88 3f b4 68 95 3f 11 ce bf 3f
       1.0542974 1.0669606 1.1672578 1.4984761
000020 ed 1b 8e 3f f9 9d 7e 3f 48 78 a0 3f 57 08 83 3f
       1.1102272 0.994598 1.2536707 1.023692
000030 14 55 92 3f e4 bc 8a 3f 4a 11 13 3f 47 6d af 3f
       1.1432214 1.0838895 0.57448256 1.3705224
000040 6b c7 09 3f e2 21 b8 3f 5a ac c2 3f fe a3 71 3f
       0.5381991 1.438534 1.5208848 0.9439086
000050 91 97 79 3f cf 27 91 3f 75 de 9e 3f 3b b6 12 3f
       0.97496897 1.1340274 1.2411638 0.5730931
000060 20 d6 88 3f fe 53 a0 3f d1 0f 85 3f e5 e0 96 3f
       1.0690346 1.2525632 1.0395452 1.1787382
000070 ec ee 7b 3f b1 54 ed 3f 39 d4 83 3f e9 c4 b9 3f
       0.9841144 1.8541471 1.029914 1.4513217
000080 93 b0 98 3f f2 1d b2 3f c9 25 96 3f f9 3b 6d 3f
       1.1928886 1.3915389 1.1730281 0.92669636
000090 29 06 9b 3f 2c 9b 38 3f 41 74 cd 3f ef a3 10 3f
       1.2111255 0.72111773 1.6051103 0.5650014
0000a0 8e 7e 54 3f 8e 32 ca 3f e0 56 c8 3f fe d4 9e 3f
       0.8300561 1.5796678 1.5651512 1.240875
0000b0 42 f0 80 3f b1 8f 7f 3f df 21 6a 3f ad 61 8f 3f
       1.0073321 0.9982863 0.91457933 1.1201683
0000c0 82 1f 76 3f a4 c4 8a 3f ad 4e 81 3f c1 c9 ce 3f
       0.9614183 1.084126 1.0102135 1.615532
0000d0 c4 0a a3 3f a5 ff 75 3f ed e7 8e 3f f2 55 a0 3f
       1.273766 0.9609321 1.1164528 1.2526228
0000e0 b2 f1 b9 3f 6b e0 53 3f 0c df 80 3f 47 3c 8d 3f
       1.4526885 0.8276431 1.0068069 1.103402
0000f0 fc 80 ab 3f 00 42 52 3f 07 a6 84 3f 8e e6 2e 3f
       1.3398738 0.8213196 1.0363168 0.6832055

vars.11 f4 [64]
000000 87 07 7e bf 2d 32 47 bf 50 e0 25 bf e9 48 60 bf
       -0.99230236 -0.7781094 -0.647954 -0.8761125
000010 04 6a 4a bf be da 7b bf a4 a0 b0 bf 4f 18 9d bf
       -0.79068017 -0.9838065 -1.3799024 -1.2273043
000020 88 a5 09 bf 48 09 50 bf f8 d9 a3 bf 6a 78 8b bf
       -0.53768206 -0.8126416 -1.2800894 -1.0896122
000030 e4 4b 84 bf 5b 68 62 bf 4a 77 f8 be 1f 64 80 bf
       -1.033566 -0.88440484 -0.4852851 -1.0030555
000040 3d 74 f6 be e3 72 2d bf e3 8b 91 bf 29 74 38 bf
       -0.48135558 -0.6775343 -1.1370815 -0.72052246
000050 78 81 4b be d1 c2 72 bf 4d 2e 9a bf e1 51 db be
       -0.19873607 -0.94828516 -1.204538 -0.42835906
000060 0c ed e8 be 36 67 6e bf c8 fe 89 bf 56 bf 8a bf
       -0.45493352 -0.9312624 -1.0780878 -1.0839641
000070 b0 a0 3a bf ac 1a 8d bf a2 9a 68 bf ff 7d b4 bf
       -0.7290144 -1.1023765 -0.9086095 -1.4100951
000080 5f a1 24 bf e8 92 92 bf 3b ec 95 be f3 ff 52 bf
       -0.6430873 -1.1451082 -0.29281792 -0.824218
000090 ce dd 7b bf 79 7b ee be 7e 2e 68 bf 63 3c 11 bf
       -0.9838532 -0.46578577 -0.9069594 -0.5673277
0000a0 92 89 15 bf 93 0e 9f bf 04 a1 53 bf 52 de 99 bf
       -0.5841304 -1.2426323 -0.82667565 -1.2020972
0000b0 7f 80 01 bf 44 a3 08 bf 2b db 1d bf 42 97 7d bf
       -0.50586694 -0.53374124 -0.6166255 -0.99058926
0000c0 57 62 cc be 65 13 ab be 89 98 03 bf 0c d0 81 bf
       -0.39918777 -0.33413234 -0.51404625 -1.0141616
0000d0 be ff 71 bf 23 1b 26 bf be 3a 66 bf b6 c7 8b bf
       -0.94530857 -0.6488516 -0.89933383 -1.0920322
0000e0 ad 65 82 bf fa 4e 92 3e 06 9e 5c bf 5f a1 c6 be
       -1.0187279 0.2857588 -0.86178625 -0.3879499
0000f0 c0 ed 6d bf 65 0f 53 bf 92 30 07 bf 2a a6 05 bf
       -0.929409 -0.82445365 -0.5280849 -0.5220667

vars.12 f4 [64, 64, 3, 3]
000000 ce 1a 75 3d f6 c8 29 bd bd 89 4e 3c 8b 98 a7 bc
       0.059840016 -0.041451417 0.012606082 -0.02045848
000010 10 24 29 be 34 5d ec bc 8c 86 05 be ae 79 bc bd
       -0.16517663 -0.028853036 -0.13039607 -0.09202896
000020 5f 4b b0 bd 0e 36 94 bd 87 5a e9 bd 65 4e a6 bd
       -0.08608126 -0.072368726 -0.1139422 -0.08120421
000030 05 bb c2 bc f5 a0 69 bd 86 6b 60 bd 8f 20 47 bc
       -0.023770818 -0.057038266 -0.054790042 -0.012153759
000040 0a aa 0b 3d b7 24 48 3d 8e 36 5d bb 9e 25 8c bd
       0.03409771 0.04886314 -0.003375444 -0.068431124
000050 53 fe b5 bc 47 34 63 3d 8a 66 4d bd f9 8b eb 3d
       -0.022215998 0.055469777 -0.050146617 0.11501307
000060 da a9 b1 3d 85 b4 46 3d 39 d9 5c 3d 3b 6e 27 3d
       0.08674975 0.048512 0.053918097 0.04087661
000070 90 09 f2 bb 64 bb b4 bd b9 1a fe 3d d7 bc 15 bd
       -0.007386394 -0.088248044 0.12407441 -0.036557045
000080 ae 45 ae bd c2 67 c6 bd 5c b7 04 3d 76 6d 2b bd
       -0.08509384 -0.09687759 0.032401428 -0.041852437
000090 76 f2 94 3d 6f 2b 47 bd 71 91 db 39 9b 41 1e be
       0.07272808 -0.048625406 0.00041879297 -0.15454714
0000a0 70 f6 a5 bb 4f f0 57 bd 4c 3e 90 bb de 9c 97 3d
       -0.005064778 -0.05271941 -0.0044019576 0.07402967
0000b0 a8 3d 4b 3e a7 08 d0 bd b1 ec 4a 3c c5 a4 d1 bd
       0.19847739 -0.101579 0.012385533 -0.102365054
0000c0 ea 07 09 bd 7b 2a 04 3c d9 71 b3 bd bd 44 7f bd
       -0.033454813 0.008066769 -0.08761949 -0.062321413
0000d0 62 e1 99 bd 1c c1 7d bc c5 4d c2 bc 74 de af 3d
       -0.075136915 -0.015487935 -0.023718724 0.085873514
0000e0 71 e4 cb 3d aa d8 2b bd e8 bd 2a 3d cd 0c 35 3c
       0.09955681 -0.041954674 0.041685015 0.011050415
0000f0 1a bc c0 3c 3e ab 2f bd e4 0f 9d 3c 4d 9d 95 bd
       0.023527194 -0.04288792 0.019172616 -0.07305393
000100 30 22 e4 3c d1 1b 60 be b5 2f 9b bb bf b1 a5 bd
       0.027848333 -0.21885611 -0.0047359117 -0.08090543
000110 0e 27 db bd 0a 48 81 bd 5e 45 06 be b2 48 6d be
       -0.107008085 -0.063125685 -0.13112399 -0.23172262
000120 e2 40 46 bd 83 7f 91 3d 57 a0 cb bd 3e f1 c8 bd
       -0.04840172 0.07104399 -0.09942692 -0.09811638
000130 7a c9 6d 3d c4 b4 47 be ec bc ba bd b7 e9 d8 bd
       0.05805347 -0.1950255 -0.09118065 -0.105914526
000140 7f 58 c2 3c 9b 8b 1e 3e 03 ac 80 ba 1a ae 82 bd
       0.023723839 0.15482943 -0.0009816888 -0.063808635
000150 40 d7 bb bd af bd bc 3c 3b 60 d6 bd dd e6 00 3c
       -0.09171915 0.023039667 -0.10467573 0.007867542
000160 5c 25 3b 3c 2e b4 53 3d 58 4c 6a 3d 12 40 5f bd
       0.011422481 0.051685505 0.057201713 -0.05450446
000170 ce e5 a3 3d 5f a7 62 3d 93 d7 a0 3b 1d 2a 95 bd
       0.08002816 0.0553354 0.004908511 -0.07283423
000180 37 22 d7 bd 64 d9 00 bd f2 f1 6c bd 22 16 aa bc
       -0.10504573 -0.03145732 -0.057847925 -0.020762507
000190 94 68 3a 3e 8a d9 ab bd cc ab ce 3c a9 b7 2a 3e
       0.18203956 -0.08391102 0.025228404 0.16671623
0001a0 e4 43 34 bd 47 4b 09 bd 43 21 a2 bd 86 dc 15 3d
       -0.044010058 -0.033519056 -0.079165004 0.03658726
0001b0 13 87 b7 bd c5 af 77 bd 54 e0 0c 3c f3 b6 9d 3d
       -0.0896131 -0.06047036 0.008598406 0.077009104
0001c0 6e ba 3f 3c e1 04 31 3d 53 6f 53 3d cb 91 09 bc
       0.011702163 0.043217544 0.05161984 -0.008396576
0001d0 0f 2b f7 3b 51 58 f4 ba 83 86 07 bd b2 6d 10 bd
       0.007542975 -0.0018642043 -0.033087265 -0.035260864
0001e0 be 2e 89 3c 6c 79 16 bd 8f d0 9e bc 53 ac 38 bd
       0.016745921 -0.03673689 -0.019386558 -0.045086216
0001f0 c4 d1 d3 bd 98 e1 69 3d 16 7a 0b be c6 e4 ac bc
       -0.10342744 0.05709991 -0.13620791 -0.021105181
000200 c3 01 b1 bc 3d 70 0e be 1f 40 a8 3e 56 24 ad 3e
       -0.021607285 -0.13910003 0.3286142 0.33816785
000210 85 23 86 be 53 2e 0b 3d cb 39 8b 3d f6 e7 76 bc
       -0.26198974 0.033979725 0.067981325 -0.015069952
000220 3a 8e 96 3d 70 7c da bd b1 11 83 bb 2a a4 81 3d
       0.07351346 -0.10668266 -0.0039999117 0.0633014
000230 3c d7 92 3d 23 2e 8a 3d ed ab e9 bd d7 fa 2a bc
       0.07169959 0.06747081 -0.11409745 -0.010435781
000240 19 08 c9 3d 6f 83 a3 bd 16 a2 cb bb c1 ce 2e be
       0.09815998 -0.07984053 -0.0062143905 -0.17071058
000250 30 ae 03 bd 47 c1 f5 bd 77 52 0f bd 19 ee bf bd
       -0.03214854 -0.11999755 -0.034990754 -0.093715854
000260 ab ed 4e bd d0 b4 87 bc 3e 61 fd bb 6f 3c a0 3b
       -0.050519627 -0.01656571 -0.0077325394 0.0048900167
000270 86 18 c9 3c e9 c7 5c 3d c0 48 ba 3c 6a 97 bf 3d
       0.024547826 0.053901587 0.022739768 0.09355052
000280 4a 4a 6e 3d 0e 2c 0d 3d dd d0 21 be cd 83 db 3c
       0.058176316 0.034465842 -0.15802331 0.026796246
000290 aa 91 58 3e 77 de cd bd 6a 9a 0e be ea a2 57 bc
       0.21149316 -0.100521974 -0.13926092 -0.0131614
0002a0 24 13 9b 3d bb ac 8d 3d 32 1d 3c 3e 02 a6 58 3d
       0.0757201 0.06917711 0.18370512 0.052892692
0002b0 04 9b 71 3d 50 bb b4 bd 63 d9 df bd dd 2f 26 bd
       0.058985725 -0.088247895 -0.10930135 -0.04057299
0002c0 bf 20 0b bd fc 25 5a bd 8c f1 5c 3d 68 45 61 bc
       -0.033966776 -0.05325888 0.053941295 -0.013749458
0002d0 68 e8 06 3d bb 4c b9 3d 13 15 9f bd d0 16 b5 3b
       0.032936484 0.09047838 -0.077676915 0.005526401
0002e0 3c 8b d4 3d 6f 7b 33 bd ac 3b a1 bd 58 0c bf bc
       0.10378119 -0.043818887 -0.0787271 -0.023321316
0002f0 8d 54 ef bc 1b 83 0c bc 8b 06 e7 3d 89 67 eb bc
       -0.029215122 -0.00857618 0.11280545 -0.028735893
000300 ba ad f2 3d 5d 89 c7 3c a7 ba 3b bd a0 66 4c 3c
       0.11849542 0.024357492 -0.045832302 0.01247564
000310 c8 5a 1e be 92 6b 9b bd a1 8a b6 bd a4 2f 04 be
       -0.15464318 -0.07588877 -0.0891316 -0.12908798
000320 49 63 44 3d f7 96 87 3c fb e8 ce 3d e1 c9 34 3e
       0.04794625 0.016551478 0.10103031 0.17655136
000330 84 2e 9b bb 52 04 97 bc 39 10 e7 3d 1d 3d 1b 3d
       -0.0047357697 -0.018434677 0.11282391 0.03790008
000340 63 72 12 3e e5 e0 09 bd ec 53 22 bd 1c 0c 47 3e
       0.14301448 -0.03366174 -0.039630815 0.19438213
000350 46 6d 30 b9 ff 72 7d bd 54 13 c0 bd dc 07 23 3e
       -0.00016825375 -0.061877247 -0.093786865 0.15920967
000360 35 3f 2d bc aa a1 c6 3b 07 ed b6 bd 10 e3 1e bd
       -0.010574152 0.0060617523 -0.08931928 -0.038790762
000370 2c 96 22 bd 25 3d 0b be bd 84 82 bd a4 a5 dc bd
       -0.039693996 -0.13597544 -0.06372974 -0.10773781
000380 d2 07 7f 3c 93 be 8b bc a5 ec f6 3d c9 9c 83 3d
       0.015565829 -0.017058646 0.12056855 0.06426389
000390 34 20 fd 3d 1d 32 eb bd 9d 6d cc bc 9a f5 4b bb
       0.12359658 -0.11484168 -0.024954611 -0.0031121732
0003a0 31 b0 fb bd 1f 5e 86 bd 3c ee ea 3d 78 f9 99 3d
       -0.12289465 -0.06560921 0.11471221 0.075182855
0003b0 5f 74 86 3d e0 de 2b be 04 7a 23 3d a2 62 e6 bc
       0.06565165 -0.16784239 0.039911285 -0.028123204
0003c0 df ad bd 3c 36 b6 25 bd 65 c6 dc 3d 0c 7f 04 3d
       0.023154197 -0.040456973 0.10780028 0.032347724
0003d0 3e 98 4b 3d 0f bf 28 bd d9 5a 65 bd c1 00 10 be
       0.049705736 -0.041197833 -0.055994842 -0.14062788
0003e0 da b6 81 bd 8f b4 11 bc 22 ca 19 be f3 68 3e bc
       -0.06333704 -0.008893146 -0.15018514 -0.0116217015
0003f0 d8 95 01 bd 75 d1 19 be 54 96 dc bb 76 17 0c 3d
       -0.031637043 -0.15021308 -0.0067317877 0.03420206

vars.13 f4 [64]
000000 1c 29 c4 bc f3 ea be 3b 95 16 5c bc cd 1d 51 bc
       -0.023945384 0.005826348 -0.013433118 -0.012763453
000010 d1 52 9d bd 3a 95 ca ba 63 48 c7 bd 9d a0 a8 bc
       -0.076818116 -0.001545585 -0.097306035 -0.020584399
000020 9f c3 e0 bc bb ef 07 bc 6a 43 43 bb a4 78 a0 bd
       -0.02743703 -0.008296902 -0.002979482 -0.078355104
000030 c5 37 fc b9 c0 63 c7 ba 7f 07 69 bb b1 d9 70 bb
       -0.00048106737 -0.0015212223 -0.0035557447 -0.0036750848
000040 03 18 5b bc f4 71 c9 3b 51 ff 02 bd 7f 02 de bc
       -0.013372424 0.0061476175 -0.03198177 -0.0271008
000050 f2 d9 5f bb a3 49 72 bc 60 97 0c bd f6 7a c8 bc
       -0.0034157005 -0.014788064 -0.03432405 -0.024472695
000060 a5 52 ac bd cb 28 97 bc b0 05 0a bc 14 4b 9e bb
       -0.08414201 -0.018452069 -0.008424208 -0.0048307274
000070 ed 0d 8c bb 83 a7 96 3a 44 ce 0c bd ca 30 e3 bb
       -0.004274121 0.0011494014 -0.034376398 -0.0069333063
000080 fb e2 97 ba 10 2e 82 bc e6 e2 38 bc b2 d5 49 bd
       -0.0011588031 -0.015891105 -0.011284566 -0.04927606
000090 6a 26 65 bd c2 ec 89 bc eb 7d e2 bb 19 69 bc 3b
       -0.055944838 -0.016836528 -0.0069119832 0.0057498333
0000a0 4a a2 55 bc c1 39 7a 3b b1 2f 8a bd 89 a5 17 bc
       -0.013039181 0.0038181397 -0.06747378 -0.009255775
0000b0 50 0f a0 ba af cb 5f bc 28 6e ce bc c9 b2 1f bd
       -0.0012211595 -0.013659402 -0.025199011 -0.038988862
0000c0 8b ef c1 bc d1 c3 d4 bc 56 80 bb 3b 09 07 60 bc
       -0.023673793 -0.025972279 0.005722086 -0.013673552
0000d0 10 7e f6 bb 93 61 53 bd f0 a8 ab bc c0 2e 8f 3a
       -0.007522352 -0.051606726 -0.02095458 0.0010923967
0000e0 76 88 9f bb 20 68 d0 bc 7e 42 88 bc b9 f9 96 bc
       -0.0048685623 -0.025440276 -0.016633268 -0.018429624
0000f0 fb 20 ca 3b db 47 0a bb 80 5d 83 bc 3a 1f 2c bc
       0.0061684824 -0.0021099958 -0.016035795 -0.010505492

vars.14 f4 [64]
000000 f1 d2 ca 3f 5d a9 81 40 4e 73 ff 3f 4e fc 5b 3f
       1.5845624 4.051924 1.9957063 0.8593186
000010 12 75 49 40 da 09 8f 3f 02 69 39 40 d4 20 fa 3f
       3.1477704 1.1174881 2.8970342 1.9541268
000020 ca 07 95 3f 8e 23 82 3f ae ad 4e 3f 87 32 24 40
       1.1643002 1.01671 0.80733764 2.565584
000030 1a 4e 81 40 60 bc 54 40 0d 98 5c 3f 2a ae 16 3f
       4.040784 3.3239975 0.8616951 0.58859503
000040 18 5a c7 3f 0b b2 55 40 bb 30 cc 3f ac e1 a8 3f
       1.557437 3.3389919 1.5952371 1.319387
000050 f4 87 e5 3f 9f 28 83 3f f8 f1 c5 3f 5b 49 1c 40
       1.7932115 1.0246772 1.5464468 2.4419773
000060 09 3e 65 40 9a 02 17 40 d4 c8 58 3f 1c 2f aa 3f
       3.5819113 2.3595338 0.8468144 1.3295627
000070 e4 48 df 3f 7e c9 c4 3f a4 1a de 3f 0d 16 2e 3f
       1.744412 1.537399 1.735188 0.68002397
000080 03 47 87 3f 37 4e d3 3f 49 ab bb 3f 78 cb ff 3f
       1.0568546 1.6508244 1.4661647 1.9983969
000090 ad ec 15 40 80 4e b0 3f ce 91 65 3f 06 f1 79 40
       2.3425705 1.3773956 0.89675605 3.905336
0000a0 84 89 ac 3f d1 8c 8b 40 8c 90 26 40 c5 f0 9a 3f
       1.3479466 4.3609395 2.6025724 1.2104727
0000b0 c4 0a b2 3f 32 3d 6c 3f d8 bb 12 40 c9 f3 a0 3f
       1.3909535 0.92280877 2.292715 1.2574397
0000c0 b6 96 a5 3f 16 5f df 3f 9c b3 82 3f 76 ac 83 3f
       1.2936618 1.7450893 1.0211062 1.0287006
0000d0 00 75 0f 40 89 4a ca 3f f8 9d ab 3f 57 9d 05 3f
       2.241516 1.5803996 1.3407583 0.52193207
0000e0 a5 f4 4e 3f b0 31 0f 40 f9 21 9b 3f 44 75 b9 3f
       0.8084205 2.2374077 1.2119743 1.4488912
0000f0 68 a6 af 3f 1e d5 88 3f a5 a6 1f 40 eb 9a 87 3f
       1.3722658 1.0690038 2.4945462 1.0594152

vars.15 f4 [64]
000000 ce 80 2a bf a6 3b 05 c0 18 a3 91 be ef 54 e9 be
       -0.6660279 -2.0817657 -0.28444743 -0.45572612
000010 92 4f 29 3f 35 fc 8c be 21 27 ec bc 0e a7 28 3f
       0.6613704 -0.2753617 -0.028827252 0.65879905
000020 61 75 de bd e3 61 32 bf 2e b5 a9 be f4 a1 3e be
       -0.10862232 -0.69680613 -0.33146042 -0.18616468
000030 7c 9d b3 bf ed c0 8a bf 18 8a 7f bf 78 2f 2b bf
       -1.4032435 -1.0840126 -0.9982009 -0.66869307
000040 e0 3e a9 3d 3f 9e 11 c0 dc 4a e8 bd ce c9 05 bf
       0.082639456 -2.2752836 -0.11342403 -0.52261055
000050 3d 05 d0 be 03 34 0f bf 49 39 f8 be ba a1 ea 3e
       -0.40628996 -0.5593874 -0.48481205 0.45826513
000060 0e 64 5a 3f 57 54 35 be d1 a4 aa be 5d 11 84 be
       0.8530892 -0.17707954 -0.3332887 -0.25794497
000070 48 0a 3b be 46 8f 31 bf eb e6 52 bf 58 4b 21 bf
       -0.1826564 -0.6935924 -0.823836 -0.6300559
000080 e8 ae d3 be b7 38 39 be 50 1c 25 bf a1 6e b8 3e
       -0.4134438 -0.18088041 -0.64496326 0.36021903
000090 e2 76 04 3f 60 c2 3e bf b9 d4 8a be 83 b3 ca bf
       0.517439 -0.7451534 -0.2711542 -1.5836033
0000a0 c1 21 18 bf d7 23 fb bf a9 86 3f 3f cf 41 0f bf
       -0.59426504 -1.9620312 0.7481485 -0.5595979
0000b0 99 e8 8e be 1a f4 87 bf 89 79 25 be 7d ac 3e bf
       -0.27911833 -1.0621369 -0.16159643 -0.74481946
0000c0 ad 60 95 be 80 6b 42 bf f8 ff 8f bf 41 2b 34 bf
       -0.2917532 -0.7594528 -1.124999 -0.703785
0000d0 e7 49 10 3f 8e ac 10 bf a4 93 17 bf 86 85 2b bf
       0.56362766 -0.565133 -0.59209657 -0.67000616
0000e0 0f 14 1e bf 02 cc b4 3d 86 1b 03 bf 7e 00 77 be
       -0.61749357 0.08827974 -0.5121387 -0.24121282
0000f0 d6 04 0c bf f7 2f f6 be de 8b 91 3f fd be 25 bf
       -0.5469488 -0.4808347 1.1370809 -0.6474455
